…
I tensorflow/stream_executor/dso_loader.cc:128] successfully opened CUDA library libcufft.so locally
I tensorflow/stream_executor/dso_loader.cc:128] successfully opened CUDA library libcuda.so.1 locally
I tensorflow/stream_executor/dso_loader.cc:128] successfully opened CUDA library libcurand.so locally
Couldn't import dot_parser, loading of dot files will not be possible.
____________________________________________________________________________________________________
Layer (type)                     Output Shape          Param #     Connected to
====================================================================================================
lambda_1 (Lambda)                (None, 160, 320, 3)   0           lambda_input_1[0][0]
____________________________________________________________________________________________________
cropping2d_1 (Cropping2D)        (None, 90, 320, 3)    0           lambda_1[0][0]
____________________________________________________________________________________________________
convolution2d_1 (Convolution2D)  (None, 43, 158, 24)   1824        cropping2d_1[0][0]
____________________________________________________________________________________________________
convolution2d_2 (Convolution2D)  (None, 20, 77, 36)    21636       convolution2d_1[0][0]
____________________________________________________________________________________________________
convolution2d_3 (Convolution2D)  (None, 8, 37, 48)     43248       convolution2d_2[0][0]
____________________________________________________________________________________________________
convolution2d_4 (Convolution2D)  (None, 6, 35, 64)     27712       convolution2d_3[0][0]
____________________________________________________________________________________________________
convolution2d_5 (Convolution2D)  (None, 4, 33, 64)     36928       convolution2d_4[0][0]
____________________________________________________________________________________________________
flatten_1 (Flatten)              (None, 8448)          0           convolution2d_5[0][0]
____________________________________________________________________________________________________
dense_1 (Dense)                  (None, 100)           844900      flatten_1[0][0]
____________________________________________________________________________________________________
dense_2 (Dense)                  (None, 50)            5050        dense_1[0][0]
____________________________________________________________________________________________________
dense_3 (Dense)                  (None, 10)            510         dense_2[0][0]
____________________________________________________________________________________________________
dense_4 (Dense)                  (None, 1)             11          dense_3[0][0]
====================================================================================================
Total params: 981,819
Trainable params: 981,819
Non-trainable params: 0
____________________________________________________________________________________________________
Traceback (most recent call last):
  File "model.py", line 187, in <module>
    plot(model, to_file='model.png', show_shapes=True)
…
