____________________________________________________________________________________________________
Layer (type)                     Output Shape          Param #     Connected to                     
====================================================================================================
lambda_2 (Lambda)                (None, 160, 320, 3)   0           lambda_input_2[0][0]             
____________________________________________________________________________________________________
cropping2d_2 (Cropping2D)        (None, 90, 320, 3)    0           lambda_2[0][0]                   
____________________________________________________________________________________________________
convolution2d_6 (Convolution2D)  (None, 43, 158, 24)   1824        cropping2d_2[0][0]               
____________________________________________________________________________________________________
convolution2d_7 (Convolution2D)  (None, 20, 77, 36)    21636       convolution2d_6[0][0]            
____________________________________________________________________________________________________
convolution2d_8 (Convolution2D)  (None, 8, 37, 48)     43248       convolution2d_7[0][0]            
____________________________________________________________________________________________________
convolution2d_9 (Convolution2D)  (None, 6, 35, 64)     27712       convolution2d_8[0][0]            
____________________________________________________________________________________________________
convolution2d_10 (Convolution2D) (None, 4, 33, 64)     36928       convolution2d_9[0][0]            
____________________________________________________________________________________________________
flatten_2 (Flatten)              (None, 8448)          0           convolution2d_10[0][0]           
____________________________________________________________________________________________________
dense_5 (Dense)                  (None, 100)           844900      flatten_2[0][0]                  
____________________________________________________________________________________________________
dense_6 (Dense)                  (None, 50)            5050        dense_5[0][0]                    
____________________________________________________________________________________________________
dense_7 (Dense)                  (None, 10)            510         dense_6[0][0]                    
____________________________________________________________________________________________________
dense_8 (Dense)                  (None, 1)             11          dense_7[0][0]                    
====================================================================================================
Total params: 981,819
Trainable params: 981,819
Non-trainable params: 0
____________________________________________________________________________________________________
Epoch 1/10
33792/33808 [============================>.] - ETA: 0s - loss: 0.0251
Epoch 00000: val_loss improved from inf to 0.02004, saving model to model.h5
…
